// mlir-hlo-opt torch-fmnist-mhlo.mlir --hlo-canonicalize-scatter --legalize-mhlo-to-thlo --hlo-legalize-to-linalg --shape-simplification --linalg-fuse-elementwise-ops --scalarize -cse --canonicalize -o tmp.mlir

#map = affine_map<(d0, d1) -> (d0, d1)>
#map1 = affine_map<(d0, d1) -> (d1)>
module attributes {torch.debug_module_name = "NeuralNetwork"} {
  func.func @forward(%arg0: tensor<64x1x28x28xf32>) -> tensor<64x10xf32> {
    %cst = arith.constant dense<"…"> : tensor<128x10xf32>
    %cst_0 = arith.constant 0.000000e+00 : f32
    %cst_1 = arith.constant dense<"…"> : tensor<784x128xf32>
    %cst_2 = arith.constant dense<"…"> : tensor<128xf32>
    %cst_3 = arith.constant dense<[-0.0616553873, -0.00321779796, -0.0599240847, -0.0715802312, -0.13069354, 0.168690786, 5.090820e-02, 0.121304899, -0.0519739427, -0.108365297]> : tensor<10xf32>
    %0 = mhlo.reshape %arg0 : (tensor<64x1x28x28xf32>) -> tensor<64x784xf32>
    %1 = tensor.empty() : tensor<64x128xf32>
    %2 = linalg.fill ins(%cst_0 : f32) outs(%1 : tensor<64x128xf32>) -> tensor<64x128xf32>
    %3 = linalg.matmul ins(%0, %cst_1 : tensor<64x784xf32>, tensor<784x128xf32>) outs(%2 : tensor<64x128xf32>) -> tensor<64x128xf32>
    %4 = linalg.generic {indexing_maps = [#map, #map1, #map], iterator_types = ["parallel", "parallel"]} ins(%3, %cst_2 : tensor<64x128xf32>, tensor<128xf32>) outs(%1 : tensor<64x128xf32>) {
    ^bb0(%in: f32, %in_4: f32, %out: f32):
      %9 = arith.addf %in, %in_4 : f32
      %10 = arith.maxf %9, %cst_0 : f32
      linalg.yield %10 : f32
    } -> tensor<64x128xf32>
    %5 = tensor.empty() : tensor<64x10xf32>
    %6 = linalg.fill ins(%cst_0 : f32) outs(%5 : tensor<64x10xf32>) -> tensor<64x10xf32>
    %7 = linalg.matmul ins(%4, %cst : tensor<64x128xf32>, tensor<128x10xf32>) outs(%6 : tensor<64x10xf32>) -> tensor<64x10xf32>
    %8 = linalg.generic {indexing_maps = [#map, #map1, #map], iterator_types = ["parallel", "parallel"]} ins(%7, %cst_3 : tensor<64x10xf32>, tensor<10xf32>) outs(%5 : tensor<64x10xf32>) {
    ^bb0(%in: f32, %in_4: f32, %out: f32):
      %9 = arith.addf %in, %in_4 : f32
      linalg.yield %9 : f32
    } -> tensor<64x10xf32>
    return %8 : tensor<64x10xf32>
  }
}

