module attributes {torch.debug_module_name = "NeuralNetwork"} {
  func.func @forward(%arg0: tensor<64x1x28x28xf32>) -> tensor<64x10xf32> {
    %0 = mhlo.constant dense<0.000000e+00> : tensor<64x128xf32>
    %cst = arith.constant dense<[64, -1]> : tensor<2xi64>
    %c-64 = arith.constant -64 : index
    %1 = mhlo.constant dense<"…"> : tensor<128x784xf32>
    %2 = mhlo.constant dense<"…"> : tensor<128xf32>
    %3 = mhlo.constant dense<"…"> : tensor<10x128xf32>
    %4 = mhlo.constant dense<[-0.0616553873, -0.00321779796, -0.0599240847, -0.0715802312, -0.13069354, 0.168690786, 5.090820e-02, 0.121304899, -0.0519739427, -0.108365297]> : tensor<10xf32>
    %5 = mhlo.compute_reshape_shape %c-64, %cst : (index, tensor<2xi64>) -> tensor<2xi64>
    %6 = mhlo.dynamic_reshape %arg0, %5 : (tensor<64x1x28x28xf32>, tensor<2xi64>) -> tensor<64x784xf32>
    %7 = "mhlo.transpose"(%1) {permutation = dense<[1, 0]> : tensor<2xi64>} : (tensor<128x784xf32>) -> tensor<784x128xf32>
    %8 = "mhlo.dot"(%6, %7) : (tensor<64x784xf32>, tensor<784x128xf32>) -> tensor<64x128xf32>
    %9 = shape.shape_of %8 : tensor<64x128xf32> -> tensor<2xindex>
    %10 = shape.shape_of %2 : tensor<128xf32> -> tensor<1xindex>
    %11 = shape.cstr_broadcastable %9, %10 : tensor<2xindex>, tensor<1xindex>
    %12 = shape.assuming %11 -> (tensor<64x128xf32>) {
      %20 = shape.const_shape [64, 128] : tensor<2xindex>
      %21 = shape.const_shape [128] : tensor<1xindex>
      %22 = shape.const_shape [64, 128] : tensor<2xindex>
      %23 = "mhlo.dynamic_broadcast_in_dim"(%8, %22) {broadcast_dimensions = dense<[0, 1]> : tensor<2xi64>} : (tensor<64x128xf32>, tensor<2xindex>) -> tensor<64x128xf32>
      %24 = "mhlo.dynamic_broadcast_in_dim"(%2, %22) {broadcast_dimensions = dense<1> : tensor<1xi64>} : (tensor<128xf32>, tensor<2xindex>) -> tensor<64x128xf32>
      %25 = mhlo.add %23, %24 : tensor<64x128xf32>
      shape.assuming_yield %25 : tensor<64x128xf32>
    }
    %13 = mhlo.maximum %12, %0 : tensor<64x128xf32>
    %14 = "mhlo.transpose"(%3) {permutation = dense<[1, 0]> : tensor<2xi64>} : (tensor<10x128xf32>) -> tensor<128x10xf32>
    %15 = "mhlo.dot"(%13, %14) : (tensor<64x128xf32>, tensor<128x10xf32>) -> tensor<64x10xf32>
    %16 = shape.shape_of %15 : tensor<64x10xf32> -> tensor<2xindex>
    %17 = shape.shape_of %4 : tensor<10xf32> -> tensor<1xindex>
    %18 = shape.cstr_broadcastable %16, %17 : tensor<2xindex>, tensor<1xindex>
    %19 = shape.assuming %18 -> (tensor<64x10xf32>) {
      %20 = shape.const_shape [64, 10] : tensor<2xindex>
      %21 = shape.const_shape [10] : tensor<1xindex>
      %22 = shape.const_shape [64, 10] : tensor<2xindex>
      %23 = "mhlo.dynamic_broadcast_in_dim"(%15, %22) {broadcast_dimensions = dense<[0, 1]> : tensor<2xi64>} : (tensor<64x10xf32>, tensor<2xindex>) -> tensor<64x10xf32>
      %24 = "mhlo.dynamic_broadcast_in_dim"(%4, %22) {broadcast_dimensions = dense<1> : tensor<1xi64>} : (tensor<10xf32>, tensor<2xindex>) -> tensor<64x10xf32>
      %25 = mhlo.add %23, %24 : tensor<64x10xf32>
      shape.assuming_yield %25 : tensor<64x10xf32>
    }
    return %19 : tensor<64x10xf32>
  }
}

