module attributes {tf.versions = {bad_consumers = [], min_consumer = 0 : i32, producer = 1286 : i32}} {
  func.func @predict(%4: tensor<?x28x28xf32>) {
    tf_executor.graph {
      %control = tf_executor.island {
        %cst = "tf.Const"() {device = "", value = dense<"…"> : tensor<128xf32>} : () -> tensor<128xf32>
        %0 = "tf.Identity"(%cst) {_has_manual_control_dependencies = true, device = ""} : (tensor<128xf32>) -> tensor<128xf32>
        %cst_1 = "tf.Const"() {device = "", value = dense<"…"> : tensor<784x128xf32>} : () -> tensor<784x128xf32>
        %1 = "tf.Identity"(%cst_1) {_has_manual_control_dependencies = true, device = ""} : (tensor<784x128xf32>) -> tensor<784x128xf32>
        %cst_2 = "tf.Const"() {device = "", value = dense<[-0.0411932655, 0.0107014468, -0.0858138353, -0.150989637, 0.0771244913, 0.0187340081, 0.019912973, -0.135133147, 0.210777029, 0.0349147134]> : tensor<10xf32>} : () -> tensor<10xf32>
        %2 = "tf.Identity"(%cst_2) {_has_manual_control_dependencies = true, device = ""} : (tensor<10xf32>) -> tensor<10xf32>
        %cst_3 = "tf.Const"() {device = "", value = dense<"…"> : tensor<128x10xf32>} : () -> tensor<128x10xf32>
        %3 = "tf.Identity"(%cst_3) {_has_manual_control_dependencies = true, device = ""} : (tensor<128x10xf32>) -> tensor<128x10xf32>
        "tf.NoOp"() {_acd_function_control_output = true, _has_manual_control_dependencies = true, device = ""} : () -> ()
        %cst_4 = "tf.Const"() {device = "", value = dense<[-1, 784]> : tensor<2xi32>} : () -> tensor<2xi32>
        %5 = "tf.Reshape"(%4, %cst_4) {device = ""} : (tensor<?x28x28xf32>, tensor<2xi32>) -> tensor<?x784xf32>
        %6 = "tf.MatMul"(%5, %1) {device = "", transpose_a = false, transpose_b = false} : (tensor<?x784xf32>, tensor<784x128xf32>) -> tensor<?x128xf32>
        %7 = "tf.BiasAdd"(%6, %0) {data_format = "NHWC", device = ""} : (tensor<?x128xf32>, tensor<128xf32>) -> tensor<?x128xf32>
        %8 = "tf.Relu"(%7) {device = ""} : (tensor<?x128xf32>) -> tensor<?x128xf32>
        %9 = "tf.Identity"(%8) {device = ""} : (tensor<?x128xf32>) -> tensor<?x128xf32>
        %10 = "tf.MatMul"(%9, %3) {device = "", transpose_a = false, transpose_b = false} : (tensor<?x128xf32>, tensor<128x10xf32>) -> tensor<?x10xf32>
        %11 = "tf.BiasAdd"(%10, %2) {data_format = "NHWC", device = ""} : (tensor<?x10xf32>, tensor<10xf32>) -> tensor<?x10xf32>
        %12 = "tf.Identity"(%11) {device = ""} : (tensor<?x10xf32>) -> tensor<?x10xf32>
        tf_executor.yield
      }
      %control_0 = tf_executor.island {
        tf_executor.yield
      }
      tf_executor.fetch
    }
  }
}

